…
5
2024-07-04 17:49:13.641507: I tensorflow/core/common_runtime/gpu/gpu_device.cc:1928] Created device /job:localhost/replica:0/task:0/device:GPU:0 with 22079 MB memory:  -> device: 0, name: GRID P40-24Q, pci bus id: 0000:02:01.0, compute capability: 6.1
Number of devices: 1
Model: "encoder"
┏━━━━━━━━━━━━━━━━━━━━━━━━━━━━━━━━━━━━━━┳━━━━━━━━━━━━━━━━━━━━━━━━━━━━━┳━━━━━━━━━━━━━━━━━┓
┃ Layer (type)                         ┃ Output Shape                ┃         Param # ┃
┡━━━━━━━━━━━━━━━━━━━━━━━━━━━━━━━━━━━━━━╇━━━━━━━━━━━━━━━━━━━━━━━━━━━━━╇━━━━━━━━━━━━━━━━━┩
│ input_layer (InputLayer)             │ (None, 64, 160, 2)          │               0 │
├──────────────────────────────────────┼─────────────────────────────┼─────────────────┤
│ conv2d (Conv2D)                      │ (None, 32, 80, 8)           │             152 │
├──────────────────────────────────────┼─────────────────────────────┼─────────────────┤
│ batch_normalization                  │ (None, 32, 80, 8)           │              32 │
│ (BatchNormalization)                 │                             │                 │
├──────────────────────────────────────┼─────────────────────────────┼─────────────────┤
│ re_lu (ReLU)                         │ (None, 32, 80, 8)           │               0 │
├──────────────────────────────────────┼─────────────────────────────┼─────────────────┤
│ conv2d_1 (Conv2D)                    │ (None, 16, 40, 16)          │           1,168 │
├──────────────────────────────────────┼─────────────────────────────┼─────────────────┤
│ batch_normalization_1                │ (None, 16, 40, 16)          │              64 │
│ (BatchNormalization)                 │                             │                 │
├──────────────────────────────────────┼─────────────────────────────┼─────────────────┤
│ re_lu_1 (ReLU)                       │ (None, 16, 40, 16)          │               0 │
├──────────────────────────────────────┼─────────────────────────────┼─────────────────┤
│ conv2d_2 (Conv2D)                    │ (None, 8, 20, 32)           │           4,640 │
├──────────────────────────────────────┼─────────────────────────────┼─────────────────┤
│ batch_normalization_2                │ (None, 8, 20, 32)           │             128 │
│ (BatchNormalization)                 │                             │                 │
├──────────────────────────────────────┼─────────────────────────────┼─────────────────┤
│ re_lu_2 (ReLU)                       │ (None, 8, 20, 32)           │               0 │
├──────────────────────────────────────┼─────────────────────────────┼─────────────────┤
│ conv2d_3 (Conv2D)                    │ (None, 4, 10, 64)           │          18,496 │
├──────────────────────────────────────┼─────────────────────────────┼─────────────────┤
│ batch_normalization_3                │ (None, 4, 10, 64)           │             256 │
│ (BatchNormalization)                 │                             │                 │
├──────────────────────────────────────┼─────────────────────────────┼─────────────────┤
│ re_lu_3 (ReLU)                       │ (None, 4, 10, 64)           │               0 │
├──────────────────────────────────────┼─────────────────────────────┼─────────────────┤
│ conv2d_4 (Conv2D)                    │ (None, 2, 5, 128)           │          73,856 │
├──────────────────────────────────────┼─────────────────────────────┼─────────────────┤
│ batch_normalization_4                │ (None, 2, 5, 128)           │             512 │
│ (BatchNormalization)                 │                             │                 │
├──────────────────────────────────────┼─────────────────────────────┼─────────────────┤
│ re_lu_4 (ReLU)                       │ (None, 2, 5, 128)           │               0 │
├──────────────────────────────────────┼─────────────────────────────┼─────────────────┤
│ flatten (Flatten)                    │ (None, 1280)                │               0 │
├──────────────────────────────────────┼─────────────────────────────┼─────────────────┤
│ dense (Dense)                        │ (None, 128)                 │         163,968 │
├──────────────────────────────────────┼─────────────────────────────┼─────────────────┤
│ activation (Activation)              │ (None, 128)                 │               0 │
└──────────────────────────────────────┴─────────────────────────────┴─────────────────┘
 Total params: 263,272 (1.00 MB)
 Trainable params: 262,776 (1.00 MB)
 Non-trainable params: 496 (1.94 KB)
Model: "decoder"
┏━━━━━━━━━━━━━━━━━━━━━━━━━━━━━━━━━━━━━━┳━━━━━━━━━━━━━━━━━━━━━━━━━━━━━┳━━━━━━━━━━━━━━━━━┓
┃ Layer (type)                         ┃ Output Shape                ┃         Param # ┃
┡━━━━━━━━━━━━━━━━━━━━━━━━━━━━━━━━━━━━━━╇━━━━━━━━━━━━━━━━━━━━━━━━━━━━━╇━━━━━━━━━━━━━━━━━┩
│ input_layer_1 (InputLayer)           │ (None, 128)                 │               0 │
├──────────────────────────────────────┼─────────────────────────────┼─────────────────┤
│ dense_1 (Dense)                      │ (None, 1280)                │         165,120 │
├──────────────────────────────────────┼─────────────────────────────┼─────────────────┤
│ reshape (Reshape)                    │ (None, 2, 5, 128)           │               0 │
├──────────────────────────────────────┼─────────────────────────────┼─────────────────┤
│ conv2d_transpose (Conv2DTranspose)   │ (None, 4, 10, 128)          │         147,584 │
├──────────────────────────────────────┼─────────────────────────────┼─────────────────┤
│ batch_normalization_5                │ (None, 4, 10, 128)          │             512 │
│ (BatchNormalization)                 │                             │                 │
├──────────────────────────────────────┼─────────────────────────────┼─────────────────┤
│ re_lu_5 (ReLU)                       │ (None, 4, 10, 128)          │               0 │
├──────────────────────────────────────┼─────────────────────────────┼─────────────────┤
│ conv2d_transpose_1 (Conv2DTranspose) │ (None, 8, 20, 64)           │          73,792 │
├──────────────────────────────────────┼─────────────────────────────┼─────────────────┤
│ batch_normalization_6                │ (None, 8, 20, 64)           │             256 │
│ (BatchNormalization)                 │                             │                 │
├──────────────────────────────────────┼─────────────────────────────┼─────────────────┤
│ re_lu_6 (ReLU)                       │ (None, 8, 20, 64)           │               0 │
├──────────────────────────────────────┼─────────────────────────────┼─────────────────┤
│ conv2d_transpose_2 (Conv2DTranspose) │ (None, 16, 40, 32)          │          18,464 │
├──────────────────────────────────────┼─────────────────────────────┼─────────────────┤
│ batch_normalization_7                │ (None, 16, 40, 32)          │             128 │
│ (BatchNormalization)                 │                             │                 │
├──────────────────────────────────────┼─────────────────────────────┼─────────────────┤
│ re_lu_7 (ReLU)                       │ (None, 16, 40, 32)          │               0 │
├──────────────────────────────────────┼─────────────────────────────┼─────────────────┤
│ conv2d_transpose_3 (Conv2DTranspose) │ (None, 32, 80, 16)          │           4,624 │
├──────────────────────────────────────┼─────────────────────────────┼─────────────────┤
│ batch_normalization_8                │ (None, 32, 80, 16)          │              64 │
│ (BatchNormalization)                 │                             │                 │
├──────────────────────────────────────┼─────────────────────────────┼─────────────────┤
│ re_lu_8 (ReLU)                       │ (None, 32, 80, 16)          │               0 │
├──────────────────────────────────────┼─────────────────────────────┼─────────────────┤
│ conv2d_transpose_4 (Conv2DTranspose) │ (None, 64, 160, 8)          │           1,160 │
├──────────────────────────────────────┼─────────────────────────────┼─────────────────┤
│ batch_normalization_9                │ (None, 64, 160, 8)          │              32 │
│ (BatchNormalization)                 │                             │                 │
├──────────────────────────────────────┼─────────────────────────────┼─────────────────┤
│ re_lu_9 (ReLU)                       │ (None, 64, 160, 8)          │               0 │
├──────────────────────────────────────┼─────────────────────────────┼─────────────────┤
│ conv2d_transpose_5 (Conv2DTranspose) │ (None, 64, 160, 2)          │             146 │
└──────────────────────────────────────┴─────────────────────────────┴─────────────────┘
 Total params: 411,882 (1.57 MB)
 Trainable params: 411,386 (1.57 MB)
 Non-trainable params: 496 (1.94 KB)
Model: "autoencoder"
┏━━━━━━━━━━━━━━━━━━━━━━━━━━━━━━━━━━━━━━┳━━━━━━━━━━━━━━━━━━━━━━━━━━━━━┳━━━━━━━━━━━━━━━━━┓
┃ Layer (type)                         ┃ Output Shape                ┃         Param # ┃
┡━━━━━━━━━━━━━━━━━━━━━━━━━━━━━━━━━━━━━━╇━━━━━━━━━━━━━━━━━━━━━━━━━━━━━╇━━━━━━━━━━━━━━━━━┩
│ input_layer_4 (InputLayer)           │ (None, 64, 160, 2)          │               0 │
├──────────────────────────────────────┼─────────────────────────────┼─────────────────┤
│ encoder (Functional)                 │ (None, 128)                 │         263,272 │
├──────────────────────────────────────┼─────────────────────────────┼─────────────────┤
│ decoder (Functional)                 │ (None, 64, 160, 2)          │         411,882 │
└──────────────────────────────────────┴─────────────────────────────┴─────────────────┘
 Total params: 675,154 (2.58 MB)
 Trainable params: 674,162 (2.57 MB)
 Non-trainable params: 992 (3.88 KB)

H_train_real:  (40000, 64, 160, 2)
0.9192816

H_val_real:  (5000, 64, 160, 2)
0.491622
2024-07-04 17:50:23.239228: W external/local_tsl/tsl/framework/cpu_allocator_impl.cc:83] Allocation of 3276800000 exceeds 10% of free system memory.
…
